…
[speechlab-HP-Z6-G5-Workstation-Desktop-PC] 2024-02-15 09:30:19,229 (abs_task:1271) INFO: pytorch.version=2.1.0+cu121, cuda.available=True, cudnn.version=8902, cudnn.benchmark=False, cudnn.deterministic=True
[speechlab-HP-Z6-G5-Workstation-Desktop-PC] 2024-02-15 09:30:19,230 (abs_task:1272) INFO: Model structure:
ESPnetTTSModel(
  (feats_extract): LogMelFbank(
    (stft): Stft(n_fft=1024, win_length=1024, hop_length=256, center=True, normalized=False, onesided=True)
    (logmel): LogMel(sr=16000, n_fft=1024, n_mels=80, fmin=80, fmax=7600, htk=False)
  )
  (tts): Tacotron2(
    (enc): Encoder(
      (embed): Embedding(107, 512, padding_idx=0)
      (convs): ModuleList(
        (0-2): 3 x Sequential(
          (0): Conv1d(512, 512, kernel_size=(5,), stride=(1,), padding=(2,), bias=False)
          (1): BatchNorm1d(512, eps=1e-05, momentum=0.1, affine=True, track_running_stats=True)
          (2): ReLU()
          (3): Dropout(p=0.5, inplace=False)
        )
      )
      (blstm): LSTM(512, 256, batch_first=True, bidirectional=True)
    )
    (projection): Linear(in_features=512, out_features=512, bias=True)
    (dec): Decoder(
      (att): AttLoc(
        (mlp_enc): Linear(in_features=512, out_features=512, bias=True)
        (mlp_dec): Linear(in_features=1024, out_features=512, bias=False)
        (mlp_att): Linear(in_features=32, out_features=512, bias=False)
        (loc_conv): Conv2d(1, 32, kernel_size=(1, 31), stride=(1, 1), padding=(0, 15), bias=False)
        (gvec): Linear(in_features=512, out_features=1, bias=True)
      )
      (lstm): ModuleList(
        (0): ZoneOutCell(
          (cell): LSTMCell(768, 1024)
        )
        (1): ZoneOutCell(
          (cell): LSTMCell(1024, 1024)
        )
      )
      (prenet): Prenet(
        (prenet): ModuleList(
          (0): Sequential(
            (0): Linear(in_features=80, out_features=256, bias=True)
            (1): ReLU()
          )
          (1): Sequential(
            (0): Linear(in_features=256, out_features=256, bias=True)
            (1): ReLU()
          )
        )
      )
      (postnet): Postnet(
        (postnet): ModuleList(
          (0): Sequential(
            (0): Conv1d(80, 512, kernel_size=(5,), stride=(1,), padding=(2,), bias=False)
            (1): BatchNorm1d(512, eps=1e-05, momentum=0.1, affine=True, track_running_stats=True)
            (2): Tanh()
            (3): Dropout(p=0.5, inplace=False)
          )
          (1-3): 3 x Sequential(
            (0): Conv1d(512, 512, kernel_size=(5,), stride=(1,), padding=(2,), bias=False)
            (1): BatchNorm1d(512, eps=1e-05, momentum=0.1, affine=True, track_running_stats=True)
            (2): Tanh()
            (3): Dropout(p=0.5, inplace=False)
          )
          (4): Sequential(
            (0): Conv1d(512, 80, kernel_size=(5,), stride=(1,), padding=(2,), bias=False)
            (1): BatchNorm1d(80, eps=1e-05, momentum=0.1, affine=True, track_running_stats=True)
            (2): Dropout(p=0.5, inplace=False)
          )
        )
      )
      (feat_out): Linear(in_features=1536, out_features=80, bias=False)
      (prob_out): Linear(in_features=1536, out_features=1, bias=True)
    )
    (taco2_loss): Tacotron2Loss(
      (l1_criterion): L1Loss()
      (mse_criterion): MSELoss()
      (bce_criterion): BCEWithLogitsLoss()
    )
    (attn_loss): GuidedAttentionLoss()
  )
)

Model summary:
    Class Name: ESPnetTTSModel
    Total Number of model parameters: 26.94 M
    Number of trainable parameters: 26.94 M (100.0%)
    Size: 107.75 MB
…
